app/src/main/ml/future_price_prediction.tflite (tflite, 11612 bytes, 5 tensors)

sequential/dense_1/BiasAdd/ReadVariableOp f4 [32]
-0.017693168 -0.018743629 -0.0398847 -0.010739418 0.3770098 0.35207525 -0.054541055 0.3809768
-0.03305024 -0.037108637 -0.039056223 0.40527898 0.3261375 -0.029484259 0.33773673 -0.035922863
0.42891845 -0.014202507 -0.020575657 0.37788627 -0.022834033 0.3218661 -0.032049198 0.37740377
0.33233008 -0.0321716 0.32264698 -0.03770736 0.33823574 -0.037606604 0.32889935 -0.048570648
00000000: 43f1 90bc 3d8c 99bc 245e 23bd 62f4 2fbc
00000010: 6e07 c13e 3543 b43e 7166 5fbd 640f c33e
00000020: b05f 07bd 3aff 17bd 6bf9 1fbd ba80 cf3e
00000030: 7ffb a63e f988 f1bc d4eb ac3e da23 13bd
00000040: 339b db3e a2b1 68bc 488e a8bc 4f7a c13e
00000050: 700e bbbc a2cb a43e 0546 03bd 113b c13e
00000060: 2b27 aa3e 5ec6 03bd fc31 a53e 0873 1abd
00000070: 3c2d ad3e 6209 1abd 7f65 a83e 04f2 46bd

sequential/dense/BiasAdd/ReadVariableOp f4 [64]
0.46777478 0.456998 0.3366259 0.4306108 0.40385246 0.38436344 0.46901903 0.45608222
0.4439691 0.46455014 0.5027825 0.4536639 0.4977785 0.44696993 0.52504146 0.47211617
0.49259713 0.45008755 0.4234409 0.5223374 0.4826307 0.51197183 0.46273184 0.469523
0.5010092 0.48218465 0.44222215 0.4626219 0.4793361 0.43639097 0.51365435 0.44890025
0.4304851 0.47923523 0.49278575 0.47841164 0.48503897 0.47777438 0.4716161 0.47490558
0.48466864 0.4893003 0.41135 0.47345084 0.48847517 0.5032521 0.45964852 0.47167653
0.4553612 0.4500719 0.39609236 0.5017554 0.4729875 0.39422694 0.47563347 0.46744007
0.50893104 0.41561356 0.47078156 0.4629679 0.514376 0.48455605 0.44008192 0.46369287
00000000: 2d80 ef3e a4fb e93e 3b5a ac3e 0579 dc3e
00000010: c0c5 ce3e 49cb c43e 4323 f03e 9c83 e93e
00000020: eb4f e33e 84d9 ed3e 5bb6 003f a246 e83e
00000030: d3dc fe3e 3ed9 e43e 1e69 063f 36b9 f13e
00000040: b135 fc3e e071 e63e 3fcd d83e e7b7 053f
00000050: 5f1b f73e 9610 033f 30eb ec3e 5265 f03e
00000060: 2442 003f e8e0 f63e f16a e23e c7dc ec3e
00000070: 8b6b f53e a36e df3e da7e 033f 41d6 e53e
00000080: 8b68 dc3e 525e f53e 6a4e fc3e 5ff2 f43e
00000090: 0757 f83e d89e f43e aa77 f13e d326 f33e
000000a0: 7d26 f83e 9285 fa3e 789c d23e 2668 f23e
000000b0: 6b19 fa3e 21d5 003f 0d57 eb3e 967f f13e
000000c0: 1a25 e93e d36f e63e 9ecc ca3e 0b73 003f
000000d0: 6b2b f23e 1dd8 c93e 3b86 f33e 4e54 ef3e
000000e0: 4e49 023f 4dcb d43e 480a f13e 210a ed3e
000000f0: 25ae 033f bb17 f83e 6b52 e13e 2769 ed3e

sequential/dense/MatMul f4 [64, 4]
0.5183309 0.61366314 -0.3160613 -0.36096892 0.6223057 0.26769987 -0.49608657 0.169738
0.2726344 0.31462717 -0.6013283 -0.46847853 -0.40227315 -0.26771185 0.44622254 -0.6562902
0.44613335 0.16429205 0.4417831 -0.086853996 -0.076849215 -0.35729226 0.5779169 -0.545575
0.58720654 0.6292766 -0.35873684 -0.19329895 -0.15879177 -0.34549436 0.45156792 -0.08548152
-0.5706303 -0.54191726 -0.57639253 0.12829363 0.2335466 -0.44610178 0.63592166 0.11151963
0.5241674 0.3769043 0.5514433 0.40106273 0.58297676 0.2593295 -0.4546513 -0.101981044
-0.496443 -0.46928605 0.6080728 0.31023034 0.30528525 0.4410268 0.588959 -0.6195468
0.55962545 0.31271642 0.12333217 -0.3650584 -0.19173399 -0.48459083 0.5364551 0.028773624
-0.030981654 -0.4280692 0.5751281 0.39118433 0.32233796 0.4344954 -0.09534058 -0.52617794
-0.2608689 -0.2477107 0.29962474 -0.63695383 -0.5500941 -0.46583533 -0.63880336 -0.5540839
-0.4998601 -0.14676178 -0.33646962 -0.32472315 -0.51631844 -0.54898196 0.4202712 -0.2658092
0.45862845 0.30255002 -0.2809721 -0.4884319 -0.10632554 -0.36478755 0.42340645 0.029223192
-0.45080516 -0.31366137 0.48867166 -0.04880192 -0.41286874 -0.4575099 -0.25265473 0.454917
0.3243624 0.57677776 -0.41826254 0.33490828 0.30648714 0.45895487 -0.58460397 -0.5687576
-0.3507159 -0.38687074 0.56248355 -0.5622251 -0.20313554 -0.048165116 0.3919084 0.23365629
0.63018024 0.38857427 0.17449063 -0.15955107 0.06605813 0.33549693 0.57539684 0.060609456
0.55073327 0.42802772 -0.25597113 0.30581823 -0.3745689 -0.4314659 -0.2810383 -0.69428587
-0.422767 -0.5080651 0.38268608 -0.43859738 -0.24605615 -0.111788 0.54498833 0.3694407
-0.22718246 -0.31111732 -0.64661527 0.16344787 0.4898244 0.076393254 -0.31809556 -0.4983196
0.0323855 -0.37990826 0.6100214 0.20188048 0.5945614 0.47747856 -0.52286786 -0.34188902
0.45316505 0.4893118 -0.46874842 -0.10958981 0.11900555 -0.41862676 0.42514706 -0.22244427
-0.18611108 -0.2860421 0.49784237 0.121073455 -0.15182419 -0.40776843 -0.4429014 0.16410129
-0.47605777 -0.1719574 0.24044123 0.3457386 0.30649638 0.61870456 0.05393338 -0.1845816
0.19774646 -0.15135472 0.64665794 -0.1368806 0.5148555 0.38465732 -0.2285323 0.081994936
0.36199448 0.4769892 -0.14522949 0.4350733 0.13576975 0.48793185 0.67718184 -0.3283311
0.45881686 0.44012377 0.42076007 0.28738838 0.6111312 0.3065067 0.6976207 -0.35986674
0.009346057 0.5545216 -0.5119458 -0.61451256 0.24441445 0.44629362 0.61401576 0.24230024
0.6506141 0.3895942 -0.5334378 -0.17065863 0.61156255 0.62270916 -0.60346544 0.23081335
0.33893088 0.5904978 -0.4250395 -0.22179814 0.09561296 0.54328483 0.4574227 0.20502807
0.33527765 0.45090735 0.5451749 -0.40357658 -0.4736465 -0.37446168 -0.55259174 0.14489655
0.4340366 0.18476872 -0.6605068 0.22168778 -0.5988397 -0.31416026 -0.52490354 -0.09695202
-0.5134684 -0.09932194 0.4977871 -0.39382687 0.36998904 0.30230722 -0.5383478 -0.44433716
00000000: 55b1 043f 0719 1d3f c9d2 a1be ebd0 b8be
00000010: 6d4f 1f3f f50f 893e 0fff fdbe cccf 2d3e
00000020: bc96 8b3e d016 a13e a7f0 19bf 6bdc efbe
00000030: bff6 cdbe 8711 89be 4877 e43e a202 28bf
00000040: 976b e43e 2d3c 283e 6531 e23e 82e0 b1bd
00000050: 1f63 9dbd 03ef b6be 5df2 133f ceaa 0bbf
00000060: 2b53 163f 4518 213f 5bac b7be 29f0 45be
00000070: 4f9a 22be a3e4 b0be e933 e73e ef10 afbd
00000080: d414 12bf 17bb 0abf 768e 13bf 685f 033e
00000090: d726 6f3e 7467 e4be c3cb 223f 6764 e43d
000000a0: d62f 063f 9af9 c03e 632b 0d3f 1858 cd3e
000000b0: f73d 153f d6c6 843e 0ec8 e8be 70db d0bd
000000c0: c72d febe 4346 f0be a9aa 1b3f 83d6 9e3e
000000d0: 594e 9c3e 44ce e13e 04c6 163f 9e9a 1ebf
000000e0: 9d43 0f3f 5e1c a03e 9495 fc3d efe8 babe
000000f0: ea55 44be 4a1c f8be 1f55 093f aab6 eb3c
00000100: 3dcd fdbc e32b dbbe 983b 133f 5049 c83e
00000110: 7b09 a53e 2e76 de3e ec41 c3bd 99b3 06bf
00000120: 9c90 85be e0a7 7dbe 6a68 993e 680f 23bf
00000130: f8d2 0cbf f881 eebe 9e88 23bf 71d8 0dbf
00000140: aaed ffbe b848 16be bf45 acbe 1d42 a6be
00000150: 722d 04bf 158a 0cbf c92d d73e 2518 88be
00000160: 59d1 ea3e d6e7 9a3e 93db 8fbe bf13 fabe
00000170: 34c1 d9bd 6fc5 babe bbc8 d83e 7a65 ef3c
00000180: efcf e6be 3998 a0be 2c33 fa3e 86e4 47bd
00000190: 8863 d3be bd3e eabe f65b 81be e2ea e83e
000001a0: d412 a63e b5a7 133f 8226 d6be 1979 ab3e
000001b0: e2eb 9c3e 22fc ea3e 9ba8 15bf 199a 11bf
000001c0: 0991 b3be ec13 c6be ecfe 0f3f fced 0fbf
000001d0: c302 50be c948 45bd 38a8 c83e 9843 6f3e
000001e0: 7e53 213f 35f3 c63e acad 323e 5b61 23be
000001f0: 7c49 873d 41c6 ab3e 354d 133f 9f41 783d
00000200: dbfc 0c3f 7326 db3e a60e 83be 3594 9c3e
00000210: 7fc7 bfbe 19e9 dcbe 41e4 8fbe b8bc 31bf
00000220: eb74 d8be 8e10 02bf 6eef c33e d68f e0be
00000230: 25f6 7bbe 1bf1 e4bd 5b84 0b3f 5527 bd3e
00000240: 85a2 68be c54a 9fbe 9488 25bf e15e 273e
00000250: 44ca fa3e 1174 9c3d 6cdd a2be bf23 ffbe
00000260: a8a6 043d 5683 c2be 5d2a 1c3f c2b9 4e3e
00000270: 2d35 183f 1278 f43e abda 05bf 140c afbe
00000280: 4005 e83e 1487 fa3e cbff efbe 9f70 e0bd
00000290: 2fb9 f33d 3f56 d6be e0ac d93e 6ec8 63be
000002a0: e793 3ebe 1c74 92be 32e5 fe3e 5cf5 f73d
000002b0: cd77 1bbe 06c7 d0be f9c3 e2be 2b0a 283e
000002c0: d8bd f3be 9a15 30be 3a36 763e a604 b13e
000002d0: 18ed 9c3e 6c63 1e3f 3fe9 5c3d f502 3dbe
000002e0: 0c7e 4a3e bbfc 1abe 608b 253f 6e2a 0cbe
000002f0: 92cd 033f cef1 c43e 5f04 6abe f6ec a73d
00000300: 5757 b93e ee37 f43e 0ab7 14be edc1 de3e
00000310: 3a07 0b3e 34d2 f93e ca5b 2d3f 041b a8be
00000320: 0bea ea3e e757 e13e dd6d d73e 9224 933e
00000330: 1873 1c3f 72ee 9c3e 4597 323f 7440 b8be
00000340: 3420 193c 21f5 0d3f e10e 03bf b250 1dbf
00000350: c847 7a3e 9980 e43e 2330 1d3f 8e1d 783e
00000360: a58e 263f e478 c73e 618f 08bf 23c1 2ebe
00000370: 5d8f 1c3f de69 1f3f b67c 1abf 565a 6c3e
00000380: 5988 ad3e dd2a 173f c79e d9be 0d1f 63be
00000390: bad0 c33d b714 0b3f 4f33 ea3e e1f2 513e
000003a0: 83a9 ab3e 54dd e63e 9590 0b3f 97a1 cebe
000003b0: cb81 f2be 71b9 bfbe a776 0dbf c35f 143e
000003c0: 0c3a de3e 0334 3d3e f916 29bf 1f02 633e
000003d0: 8f4d 19bf 9dd9 a0be 1460 06bf c88e c6bd
000003e0: aa72 03bf 4d69 cbbd f3dd fe3e ada3 c9be
000003f0: 346f bd3e 03c8 9a3e 29d1 09bf 2980 e3be

sequential/dense_1/MatMul f4 [32, 64]
0.143534 -0.21219221 -0.22717848 -0.018051347 -0.05342538 0.06540224 -0.06729424 0.082721144
-0.14686628 -0.10126332 0.15657589 -0.09425566 0.1223658 -0.07567071 -0.16663603 -0.024814365
0.021495504 0.17306925 0.031405356 -0.19584757 -0.11824631 -0.226276 -0.043453578 -0.19681317
-0.17878157 0.19195741 -0.18854745 -0.16198212 0.100276686 -0.02654849 -0.24881752 -0.0012960916
0.09129304 -0.1454962 0.0014204218 -0.127004 -0.016737519 0.08179486 -0.024933996 0.13921292
-0.07587106 -0.14740793 -0.08509818 -0.2503958 -0.11700005 -0.060582977 0.0041294005 -0.22160858
0.022305375 0.06713469 0.07084493 -0.018085426 -0.08563979 0.09307055 -0.22620139 0.18409246
0.109626204 -0.09639413 -0.17117868 -0.025744162 -0.16978814 -0.042657495 0.2043328 -0.23354095
0.13443509 0.17670403 0.15913455 0.16564015 -0.17352563 0.08770104 -0.1258961 -0.030109398
0.1254199 -0.19499426 -0.06615718 0.03912436 0.08233578 0.12365928 -0.18837136 -0.16050097
-0.2206358 -0.20264232 -0.09863235 -0.074447416 -0.041114353 -0.20616011 -0.1991565 0.0074773817
-0.20769802 -0.055622842 -0.05688776 0.027463656 -0.13887678 -0.256724 -0.18345462 -0.14490007
0.06174931 0.09558974 -0.04067263 -0.08517437 -0.03140244 -0.25541824 -0.030465867 -0.14727217
0.034937583 -0.1650392 0.04759822 0.1101569 -0.15539713 0.19145583 0.15238984 -0.15410534
0.059913542 0.19099757 -0.18481232 -0.22960868 -0.09982119 0.20582479 -0.15819208 -0.03967894
-0.12521116 0.12340363 0.18339613 -0.21450871 0.0942173 -0.09190363 -0.22388698 0.20448403
-0.014664472 0.18052293 0.016112998 -0.15509102 0.12689444 -0.15341493 -0.19618009 -0.06287795
0.16283707 -0.03008033 -0.21656835 -0.21897785 -0.23405546 -0.23295231 -0.16826794 -0.18601912
-0.2178584 0.04204159 -0.1585519 0.20186703 0.07758406 0.13381667 0.21913865 -0.001363337
-0.06531931 -0.035520863 -0.1319859 -0.17986491 0.16510808 -0.118093036 0.06997777 -0.074082024
-0.03962655 -0.16142237 -0.25661513 -0.0976386 0.058438763 -0.13353078 0.11610424 -0.18908685
-0.17226331 -0.13907333 -0.20913973 -0.0461835 -0.17530864 0.097137004 -0.17915155 -0.049451124
0.19090223 0.23924676 -0.045044832 -0.095045105 0.20671682 -0.05341567 0.02529748 0.18062791
-0.19983895 0.22026342 0.216417 0.14706893 -0.1797727 -0.118353575 -0.08668906 -0.028984765
-0.022577897 -0.093503475 0.0069634314 0.14590852 -0.12540098 -0.029499067 -0.15596378 -0.23415923
-0.17864019 0.22155875 -0.0836286 -0.020702302 -0.21475013 0.22777273 -0.1561154 -0.17128754
0.17937598 -0.14773887 0.1397625 0.032125458 -0.10492158 -0.050829 -0.03726215 0.1977847
-0.0945329 0.013747871 -0.2075339 -0.027067548 -0.22576827 -0.0064985156 -0.18192247 0.10759861
-0.23738724 -0.10951809 0.13659544 -0.03722758 0.12495375 -0.11561397 0.054962553 -0.18353236
-0.014674604 -0.06325169 0.22848527 -0.05006814 -0.10758692 -0.20260738 -0.12534189 0.028106093
-0.18843257 0.17879818 -0.037373908 -0.12540051 0.20212993 0.22586203 -0.2311995 -0.144081
0.053686414 -0.18644051 -0.04790107 0.14670211 0.08799362 -0.08415845 -0.25706166 -0.1977179
00000000: 94fa 123e ea48 59be 7aa1 68be 6be0 93bc
00000010: 92d4 5abd 9cf1 853d 90d1 89bd b469 a93d
00000020: 1d64 16be 2563 cfbd 6e55 203e 1d09 c1bd
00000030: ec9a fa3d 3ff9 9abd a3a2 2abe 7f47 cbbc
00000040: 5717 b03c 1139 313e e7a2 003d 448c 48be
00000050: 1f2b f2bd e5b4 67be 61fc 31bd 6489 49be
00000060: 8412 37be 7c90 443e 9512 41be a4de 25be
00000070: dd5d cd3d 387c d9bc 05ca 7ebe 9ee1 a9ba
00000080: d8f7 ba3d f5fc 14be 722d ba3a 560d 02be
00000090: 1f1d 89bc 1084 a73d 6142 ccbc d58d 0e3e
000000a0: 4962 9bbd 1bf2 16be f447 aebd e133 80be
000000b0: b99d efbd db25 78bd ec4f 873b 5ced 62be
000000c0: c3b9 b63c ea7d 893d 2617 913d e327 94bc
000000d0: ea63 afbd c69b be3d 56a1 67be bc82 3c3e
000000e0: b483 e03d 496a c5bd 7749 2fbe 6ce5 d2bc
000000f0: f1dc 2dbe a0b9 2ebd 9e3c 513e 5c25 6fbe
00000100: 5aa9 093e e7f1 343e 2bf4 223e 929d 293e
00000110: b4b0 31be 9a9c b33d e8ea 00be fca7 f6bc
00000120: 136e 003e 93ac 47be 6a7d 87bd dd40 203d
00000130: a99f a83d 1441 fd3d 6ce4 40be 5e5a 24be
00000140: 5aee 61be 7881 4fbe c2ff c9bd e377 98bd
00000150: 8667 28bd a31b 53be aeef 4bbe d304 f53b
00000160: caae 54be c7d4 63bd 2403 69bd 76fb e03c
00000170: b735 0ebe 5471 83be 87db 3bbe af60 14be
00000180: d8ec 7c3d 8ec4 c33d 5898 26bd e66f aebd
00000190: d89f 00bd 2ec6 82be 8e93 f9bc 84ce 16be
000001a0: b61a 0f3d 0900 29be 5af6 423d f199 e13d
000001b0: 6d20 1fbe ff0c 443e 150c 1c3e cacd 1dbe
000001c0: e767 753d de94 433e 713f 3dbe 8a1e 6bbe
000001d0: 0d6f ccbd bcc3 523e 1bfd 21be 6286 22bd
000001e0: 5b37 00be 0bbb fc3d 32cc 3b3e 2ca8 5bbe
000001f0: 00f5 c03d f837 bcbd a142 65be 4364 513e
00000200: 4143 70bc 01db 383e 68ff 833c 2ed0 1ebe
00000210: 9ef0 013e ce18 1dbe 6fe3 48be 28c6 80bd
00000220: c3be 263e 066b f6bc 18c4 5dbe bb3b 60be
00000230: 3cac 6fbe 0d8b 6ebe 6e4e 2cbe cc7b 3ebe
00000240: 4616 5fbe cd33 2c3d 6e5b 22be 3bb6 4e3e
00000250: 64e4 9e3d 3d07 093e e265 603e 00b2 b2ba
00000260: 21c6 85bd 537e 11bd 5027 07be 822e 38be
00000270: 1812 293e c3da f1bd 8150 8f3d 51b8 97bd
00000280: 734f 22bd e84b 25be 0f63 83be bff6 c7bd
00000290: 7c5d 6f3d 4bbc 08be 0fc8 ed3d fc9f 41be
000002a0: cb65 30be 3d69 0ebe ba28 56be e92a 3dbd
000002b0: 1c84 33be c4ef c63d 8173 37be 438d 4abd
000002c0: e07b 433e 1afd 743e ee80 38bd 02a7 c2bd
000002d0: 93ad 533e 64ca 5abd a93c cf3c 86f6 383e
000002e0: 95a2 4cbe bc8c 613e 6b9c 5d3e 3d99 163e
000002f0: 5616 38be 5c63 f2bd 098a b1bd 7571 edbc
00000300: 48f5 b8bc c07e bfbd 7f2d e43b 0b69 153e
00000310: 1d69 00be 07a8 f1bc f8b4 1fbe 70c7 6fbe
00000320: 74ed 36be 4ce0 623e 7945 abbd e097 a9bc
00000330: 75e7 5bbe 413d 693e b7dc 1fbe 0066 2fbe
00000340: 56ae 373e dc48 17be e71d 0f3e fc95 033d
00000350: 20e1 d6bd 1232 50bd 32a0 18bd 1388 4a3e
00000360: 779a c1bd c03e 613c c483 54be c3bc ddbc
00000370: cc2f 67be 80f1 d4bb e249 3abe a95c dc3d
00000380: a415 73be 054b e0bd addf 0b3e f27b 18bd
00000390: c0e7 ff3d 04c7 ecbd 6a20 613d e8ef 3bbe
000003a0: c06d 70bc 1a8a 81bd 0bf8 693e 4014 4dbd
000003b0: 8856 dcbd 4f78 4fbe a059 00be c03e e63c
000003c0: 78f4 40be df16 373e 6215 19bd fe68 00be
000003d0: 26fb 4e3e 6048 673e 90bf 6cbe f889 13be
000003e0: 49e6 5b3d 43ea 3ebe ea33 44bd 1439 163e
000003f0: 0036 b43d 445b acbd 969d 83be 9076 4abe

sequential/dense_2/MatMul f4 [1, 32]
-0.1750965 -0.09975424 -0.079235435 -0.12004406 0.56955624 0.5992051 -0.32375354 0.522753
-0.313797 -0.3405485 -0.07693882 0.49648297 0.81328297 -0.38957077 0.8987604 -0.03240695
0.47966647 -0.38310942 -0.117309935 0.58178014 -0.3113755 0.6966333 -0.26469952 0.52887815
0.62768155 -0.32963827 0.85489184 -0.35386062 0.71190965 -0.36768296 0.66563994 -0.09537526
00000000: 7f4c 33be f34b ccbd 3046 a2bd a9d9 f5bd
00000010: 70ce 113f 8165 193f 06c3 a5be 24d3 053f
00000020: 00aa a0be 5f5c aebe 1a92 9dbd 0433 fe3e
00000030: 5033 503f d275 c7be 2915 663f 26bd 04bd
00000040: d896 f53e eb26 c4be 3140 f0bd 8bef 143f
00000050: 9c6c 9fbe 8f56 323f b286 87be 8f64 073f
00000060: bdaf 203f 59c6 a8be 31da 5a3f 382d b5be
00000070: b63f 363f f140 bcbe 6167 2a3f 1b54 c3bd
