app/src/main/ml/price_anomaly_model.tflite (tflite, 2768 bytes, 5 tensors)

sequential/dense_1/BiasAdd/ReadVariableOp f4 [8]
00000000: 539d 123e c884 d1bc 2545 8ebd 0f29 7f3d
00000010: 0772 09bd faf3 b4bb dd8a 273e 1c59 393e
0.14317827 -0.02557601 -0.06946782 0.062295016 -0.03355601 -0.0055222483 0.16361566 0.18100399

sequential/dense/BiasAdd/ReadVariableOp f4 [16]
00000000: da5b f5bc fa2d d6bd dfe3 b9bd 2be2 263e
00000010: 9f68 253e 833b 123e 4ee2 343e b637 f7bd
00000020: 874c c53d 5fff 063e 6c97 f33d 0ba8 243e
00000030: b701 b0bd 294b ff3d 8f04 2e3e 0023 2e3e
-0.029951025 -0.10457988 -0.09076666 0.16297214 0.16153191 0.14280514 0.17664453 -0.12071173
0.09633737 0.13183354 0.11894116 0.16079728 -0.08594077 0.124655075 0.16993926 0.17005539

sequential/dense/MatMul f4 [16, 1]
00000000: d2f6 f6bc 550a aebe 7997 8cbe d109 9bbe
00000010: 72a9 28be cca2 88be 2557 a9be 7103 c5be
00000020: 55a9 12bf c219 1fbf 6940 af3e 4ec8 0cbf
00000030: 265d 35be a695 e1be 06b1 d9be 07b4 0cbf
-0.03014699 -0.33992258 -0.27459314 -0.30280927 -0.16470888 -0.26686704 -0.33074299 -0.38479188
-0.5728963 -0.6214868 0.3422883 -0.5499314 -0.17711315 -0.44059485 -0.4251787 -0.549622

sequential/dense_1/MatMul f4 [8, 16]
00000000: dc8c 473e a8b3 82be c860 e8bd deaf 203f
00000010: 3a6e 263f 346f 023f 4e5d 033f f318 cdbd
00000020: 0711 4c3e b45e 243f a780 87bd e772 d53e
00000030: 7a2f 4abe 3418 aa3e dba5 a13e 391e 003f
00000040: 00c8 57bb 00b3 f33c 8c8a b4be 40bb 433e
00000050: 650b debe 3a62 d6be af90 ecbe f8dc 7a3e
00000060: dcb5 b5be 405c 593e 6500 c33b e06b 183d
00000070: 204a 11be dcfe 96be 1a17 bdbe 50c8 eebe
00000080: a0a2 e33e 7e08 d7be 7f0b 963e 9922 013e
00000090: 0ccc 99bc fcb0 3c3d 9a5f 8cbd 8184 ccbe
000000a0: 81f5 9b3e 229f cc3e 15a5 1c3f 1b62 eabd
000000b0: 6e76 703e 1afa b53d d9fb 8bbc 2339 01bf
000000c0: 304d 853e 0074 64bd dc42 c8be 6453 2fbe
000000d0: 76ae 10bf 9f73 10bf d12c 7bbe 0009 babc
000000e0: a02e e3bd d00d 94bd 9679 293f c1e5 a4be
000000f0: 7864 163e 182a 80be a50b cf3d f395 e0be
00000100: 0fdb 903d 5983 ddbd 05ea 01bf 35f2 bcbe
00000110: c811 e6be 6dc6 fdbe 0882 ecbd 2232 083d
00000120: 0941 573e 5093 e73e a069 e1bd 981e c73e
00000130: cbdc 08be f3a1 c53e fc12 bebe 2ba5 bc3c
00000140: 841c 9cbe 4077 c4be 369c 33bd f759 60be
00000150: c37c 893c bc56 323e 1f02 34bd d852 7bbe
00000160: 7c90 b5be 0052 4bbe 28e5 ddbe 085e 9dbe
00000170: 788f 5cbe 50ec 403e b7d6 c33e d3fe 29be
00000180: ed0d bbbe 8f84 da3e 97a3 b1bd 60dc ab3d
00000190: c88d 293f 74b2 623b e641 083f 277a a4be
000001a0: e0b8 1a3e e2d9 e7bd 8742 ab3d ff3a a43e
000001b0: 9a73 a0be c8d5 793e 1aea 123f a659 043f
000001c0: eedd c8be d3ac 4ebe 28b3 30be 6634 eb3e
000001d0: 3c02 a03d 9e3e 29bb b24b fe3d 0374 0c3f
000001e0: cbcb 293f e5ea 443e e3a2 233e 5b6b 4f3e
000001f0: eeda a7be 19e3 6d3e 6dc3 b93e f328 343f
0.19487327 -0.25527692 -0.113465846 0.6276835 0.6501194 0.5095093 0.51314247 -0.10014524
0.1992837 0.64207006 -0.06616335 0.41689226 -0.19744673 0.3322159 0.3157185 0.50046116
-0.0032925606 0.02974844 -0.35261953 0.19114399 -0.43368068 -0.41871816 -0.46204135 0.24498355
-0.3549031 0.21226597 0.0059509748 0.037212253 -0.14188433 -0.29491317 -0.36931688 -0.466372
0.4446001 -0.41998667 0.29305646 0.12610854 -0.018774055 0.046067223 -0.06854172 -0.39944842
0.30460742 0.3996516 0.61189395 -0.114444934 0.23482677 0.08885594 -0.017087864 -0.5047781
0.26035452 -0.05577469 -0.3911351 -0.17121655 -0.56516206 -0.56426424 -0.24528815 -0.02270937
-0.110928774 -0.07229197 0.6620115 -0.32206538 0.14686763 -0.25032115 0.10109643 -0.43864402
0.07073032 -0.10816068 -0.5074771 -0.3690354 -0.4493544 -0.4956545 -0.11548239 0.033250935
0.21020903 0.45229578 -0.110064745 0.3889053 -0.13365476 0.3860012 -0.3712386 0.023027977
-0.30490506 -0.3837223 -0.043850146 -0.21909319 0.016783124 0.17415899 -0.043947335 -0.24543321
-0.35461795 -0.198555 -0.43338895 -0.30735803 -0.21539104 0.18840146 0.38249752 -0.16601114
-0.36534062 0.4267926 -0.086737804 0.083916426 0.66231966 0.003459123 0.53225553 -0.32124445
0.15109587 -0.11320855 0.083622985 0.3207626 -0.31338197 0.24397957 0.5738846 0.5169929
-0.3923182 -0.20183115 -0.17255843 0.45938414 0.07812926 -0.0025824676 0.124167815 0.5486452
0.6632659 0.1923023 0.15980105 0.20255797 -0.32784218 0.23231162 0.3628191 0.70374984

sequential/dense_2/MatMul f4 [1, 8]
00000000: 526f 68bf 8145 88be 379c f13e d68a 543f
00000010: b4ad 3e3f c48f ed3c 119e 08bf 4e2e 93be
-0.9079486 -0.26615527 0.47189495 0.83024347 0.744838 0.028999217 -0.5336619 -0.28746265
