app/src/main/ml/price_anomaly_autoencoder_model.tflite (tflite, 1824 bytes, 3 tensors)

model/dense/BiasAdd/ReadVariableOp f4 [32]
00000000: 7701 d03d d1d1 08bd 2528 9ebb 4480 e6bc
00000010: fe80 603d 8045 a4bc fd96 39bd 691b a73d
00000020: 38c5 5b3d 72d4 c5bd 1a80 64bd c4a2 a23d
00000030: e8de a0bc 6a17 513d 9ef2 f63c b41b a33d
00000040: 65a3 983d b2e6 fb3c 06b1 f83d 1246 d93d
00000050: 760d 47bd 4122 23bd 624e e2bc af22 ec3d
00000060: d579 8dbd dd95 28bd 4c15 ef3d bfcd 7ebd
00000070: d1fb 30bd 170c ad3d 5ec0 5abd 36b8 40bd
0.101565294 -0.03340322 -0.004826563 -0.028137334 0.054810517 -0.020052671 -0.04531001 0.08159525
0.05365488 -0.09659661 -0.05578623 0.07941201 -0.01963754 0.05104772 0.030144986 0.07964268
0.0745304 0.030749653 0.121431395 0.10609068 -0.04859682 -0.03982759 -0.027625266 0.11530053
-0.06908003 -0.041158546 0.11673984 -0.062207934 -0.0432089 0.084495716 -0.053406112 -0.047050677

model/dense/MatMul f4 [32, 1]
00000000: c46f ea3d 36df a93d d6bc 35be cac6 ffbc
00000010: 4b6f 0cbe 09d5 9dbe a501 e43d 227d a9be
00000020: f85d 09be e807 123f be89 0c3e a521 6bbe
00000030: d386 273d cf9b 93be 6e43 ecbe 05d5 b73d
00000040: e476 51be 2e6e eabe fc17 0c3e bab9 87be
00000050: 8110 f43d 2f2e 38bd c351 d03e fb86 073e
00000060: 55cf 2f3e 0dcd 3dbd 8310 093e 88ad 1e3e
00000070: fe57 023f 420a c33d 31b9 073e fbbf ee3d
0.11447099 0.08294527 -0.17747816 -0.03122272 -0.1371433 -0.30826595 0.11133126 -0.3310328
-0.13414752 0.57043314 0.1372442 -0.22962053 0.040900063 -0.2882981 -0.46145195 0.08976177
-0.2045551 -0.45787185 0.13681024 -0.26508886 0.1191721 -0.04496592 0.4068738 0.13235085
0.17168935 -0.04633813 0.13385205 0.15495884 0.50915515 0.09523441 0.13254239 0.11657711

model/dense_1/MatMul f4 [1, 32]
00000000: ae87 933e 6fc3 d9bd 9da1 2f3e a1c7 363e
00000010: 047b 3fbe f5cc 753b a1a7 40be 84b8 d5bd
00000020: 4dd7 ffbe 8758 633e 3af4 90be 7d46 7dbe
00000030: 9c23 9bbe 5540 eabe 3753 e6be e4b9 d33e
00000040: 4416 f7be 8094 b1be f42d b23d 47a5 c2bd
00000050: 12ef 8fbe 7b0f 343e 3d16 c83e da13 f03e
00000060: aed0 85be 0db7 583e 91b3 a13e 4311 79be
00000070: 1176 bf3e bae5 c73e 3112 a9bd 4907 9bbe
0.28814453 -0.10632979 0.17151494 0.1784959 -0.1869927 0.0037506197 -0.18813945 -0.10435584
-0.4996895 0.22201739 -0.2831133 -0.2473392 -0.30300605 -0.45752206 -0.44985363 0.4135276
-0.48259175 -0.3468361 0.08700171 -0.095041804 -0.28112084 0.1758403 0.39079466 0.46890146
-0.26135772 0.21163578 0.3158231 -0.24322991 0.37394765 0.39042455 -0.08255423 -0.30278996
